…
non_linearity: sigmoid
norm: instance
output_nc: 3
phase: train
pool_size: 50
pooling: False
print_freq: 100
resize_or_crop: resize_and_crop
save_epoch_freq: 5
save_latest_freq: 5000
serial_batches: False
which_direction: AtoB
which_epoch: latest
which_model_depth: unet_256
which_model_netD: multi
which_model_netG: resnet_9blocks
-------------- End ----------------
CustomDatasetDataLoader
dataset [DepthDataset] was created
#training images = 1000
disentangled_final
---------- Networks initialized -------------
ResnetGenerator (
  (model): Sequential (
    (0): ReflectionPad2d (3, 3, 3, 3)
    (1): Conv2d(3, 64, kernel_size=(7, 7), stride=(1, 1))
    (2): InstanceNorm2d(64, eps=1e-05, momentum=0.1, affine=False)
    (3): ReLU (inplace)
    (4): Conv2d(64, 128, kernel_size=(3, 3), stride=(2, 2), padding=(1, 1))
    (5): InstanceNorm2d(128, eps=1e-05, momentum=0.1, affine=False)
    (6): ReLU (inplace)
    (7): Conv2d(128, 256, kernel_size=(3, 3), stride=(2, 2), padding=(1, 1))
    (8): InstanceNorm2d(256, eps=1e-05, momentum=0.1, affine=False)
    (9): ReLU (inplace)
    (10): ResnetBlock (
      (conv_block): Sequential (
        (0): ReflectionPad2d (1, 1, 1, 1)
        (1): Conv2d(256, 256, kernel_size=(3, 3), stride=(1, 1))
        (2): InstanceNorm2d(256, eps=1e-05, momentum=0.1, affine=False)
        (3): ReLU (inplace)
        (4): ReflectionPad2d (1, 1, 1, 1)
        (5): Conv2d(256, 256, kernel_size=(3, 3), stride=(1, 1))
        (6): InstanceNorm2d(256, eps=1e-05, momentum=0.1, affine=False)
      )
    )
    (11): ResnetBlock (
      (conv_block): Sequential (
        (0): ReflectionPad2d (1, 1, 1, 1)
        (1): Conv2d(256, 256, kernel_size=(3, 3), stride=(1, 1))
        (2): InstanceNorm2d(256, eps=1e-05, momentum=0.1, affine=False)
        (3): ReLU (inplace)
        (4): ReflectionPad2d (1, 1, 1, 1)
        (5): Conv2d(256, 256, kernel_size=(3, 3), stride=(1, 1))
        (6): InstanceNorm2d(256, eps=1e-05, momentum=0.1, affine=False)
      )
    )
    (12): ResnetBlock (
      (conv_block): Sequential (
        (0): ReflectionPad2d (1, 1, 1, 1)
        (1): Conv2d(256, 256, kernel_size=(3, 3), stride=(1, 1))
        (2): InstanceNorm2d(256, eps=1e-05, momentum=0.1, affine=False)
        (3): ReLU (inplace)
        (4): ReflectionPad2d (1, 1, 1, 1)
        (5): Conv2d(256, 256, kernel_size=(3, 3), stride=(1, 1))
        (6): InstanceNorm2d(256, eps=1e-05, momentum=0.1, affine=False)
      )
    )
    (13): ResnetBlock (
      (conv_block): Sequential (
        (0): ReflectionPad2d (1, 1, 1, 1)
        (1): Conv2d(256, 256, kernel_size=(3, 3), stride=(1, 1))
        (2): InstanceNorm2d(256, eps=1e-05, momentum=0.1, affine=False)
        (3): ReLU (inplace)
        (4): ReflectionPad2d (1, 1, 1, 1)
        (5): Conv2d(256, 256, kernel_size=(3, 3), stride=(1, 1))
        (6): InstanceNorm2d(256, eps=1e-05, momentum=0.1, affine=False)
      )
    )
    (14): ResnetBlock (
      (conv_block): Sequential (
        (0): ReflectionPad2d (1, 1, 1, 1)
        (1): Conv2d(256, 256, kernel_size=(3, 3), stride=(1, 1))
        (2): InstanceNorm2d(256, eps=1e-05, momentum=0.1, affine=False)
        (3): ReLU (inplace)
        (4): ReflectionPad2d (1, 1, 1, 1)
        (5): Conv2d(256, 256, kernel_size=(3, 3), stride=(1, 1))
        (6): InstanceNorm2d(256, eps=1e-05, momentum=0.1, affine=False)
      )
    )
    (15): ResnetBlock (
      (conv_block): Sequential (
        (0): ReflectionPad2d (1, 1, 1, 1)
        (1): Conv2d(256, 256, kernel_size=(3, 3), stride=(1, 1))
        (2): InstanceNorm2d(256, eps=1e-05, momentum=0.1, affine=False)
        (3): ReLU (inplace)
        (4): ReflectionPad2d (1, 1, 1, 1)
        (5): Conv2d(256, 256, kernel_size=(3, 3), stride=(1, 1))
        (6): InstanceNorm2d(256, eps=1e-05, momentum=0.1, affine=False)
      )
    )
    (16): ResnetBlock (
      (conv_block): Sequential (
        (0): ReflectionPad2d (1, 1, 1, 1)
        (1): Conv2d(256, 256, kernel_size=(3, 3), stride=(1, 1))
        (2): InstanceNorm2d(256, eps=1e-05, momentum=0.1, affine=False)
        (3): ReLU (inplace)
        (4): ReflectionPad2d (1, 1, 1, 1)
        (5): Conv2d(256, 256, kernel_size=(3, 3), stride=(1, 1))
        (6): InstanceNorm2d(256, eps=1e-05, momentum=0.1, affine=False)
      )
    )
    (17): ResnetBlock (
      (conv_block): Sequential (
        (0): ReflectionPad2d (1, 1, 1, 1)
        (1): Conv2d(256, 256, kernel_size=(3, 3), stride=(1, 1))
        (2): InstanceNorm2d(256, eps=1e-05, momentum=0.1, affine=False)
        (3): ReLU (inplace)
        (4): ReflectionPad2d (1, 1, 1, 1)
        (5): Conv2d(256, 256, kernel_size=(3, 3), stride=(1, 1))
        (6): InstanceNorm2d(256, eps=1e-05, momentum=0.1, affine=False)
      )
    )
    (18): ResnetBlock (
      (conv_block): Sequential (
        (0): ReflectionPad2d (1, 1, 1, 1)
        (1): Conv2d(256, 256, kernel_size=(3, 3), stride=(1, 1))
        (2): InstanceNorm2d(256, eps=1e-05, momentum=0.1, affine=False)
        (3): ReLU (inplace)
        (4): ReflectionPad2d (1, 1, 1, 1)
        (5): Conv2d(256, 256, kernel_size=(3, 3), stride=(1, 1))
        (6): InstanceNorm2d(256, eps=1e-05, momentum=0.1, affine=False)
      )
    )
    (19): Upsample(scale_factor=2, mode=nearest)
    (20): Conv2d(256, 128, kernel_size=(3, 3), stride=(1, 1), padding=(1, 1))
    (21): InstanceNorm2d(128, eps=1e-05, momentum=0.1, affine=False)
    (22): ReLU (inplace)
    (23): Upsample(scale_factor=2, mode=nearest)
    (24): Conv2d(128, 64, kernel_size=(3, 3), stride=(1, 1), padding=(1, 1))
    (25): InstanceNorm2d(64, eps=1e-05, momentum=0.1, affine=False)
    (26): ReLU (inplace)
    (27): ReflectionPad2d (3, 3, 3, 3)
    (28): Conv2d(64, 3, kernel_size=(7, 7), stride=(1, 1))
    (29): Tanh ()
  )
)
Total number of parameters: 11378179
UnetGenerator (
  (model): UnetSkipConnectionBlock (
    (model): Sequential (
      (0): Conv2d(3, 6, kernel_size=(4, 4), stride=(2, 2), padding=(1, 1))
      (1): UnetSkipConnectionBlock (
        (model): Sequential (
          (0): LeakyReLU (0.2, inplace)
          (1): Conv2d(6, 12, kernel_size=(4, 4), stride=(2, 2), padding=(1, 1))
          (2): InstanceNorm2d(12, eps=1e-05, momentum=0.1, affine=False)
          (3): UnetSkipConnectionBlock (
            (model): Sequential (
              (0): LeakyReLU (0.2, inplace)
              (1): Conv2d(12, 24, kernel_size=(4, 4), stride=(2, 2), padding=(1, 1))
              (2): InstanceNorm2d(24, eps=1e-05, momentum=0.1, affine=False)
              (3): UnetSkipConnectionBlock (
                (model): Sequential (
                  (0): LeakyReLU (0.2, inplace)
                  (1): Conv2d(24, 48, kernel_size=(4, 4), stride=(2, 2), padding=(1, 1))
                  (2): InstanceNorm2d(48, eps=1e-05, momentum=0.1, affine=False)
                  (3): UnetSkipConnectionBlock (
                    (model): Sequential (
                      (0): LeakyReLU (0.2, inplace)
                      (1): Conv2d(48, 48, kernel_size=(4, 4), stride=(2, 2), padding=(1, 1))
                      (2): InstanceNorm2d(48, eps=1e-05, momentum=0.1, affine=False)
                      (3): UnetSkipConnectionBlock (
                        (model): Sequential (
                          (0): LeakyReLU (0.2, inplace)
                          (1): Conv2d(48, 48, kernel_size=(4, 4), stride=(2, 2), padding=(1, 1))
                          (2): InstanceNorm2d(48, eps=1e-05, momentum=0.1, affine=False)
                          (3): UnetSkipConnectionBlock (
                            (model): Sequential (
                              (0): LeakyReLU (0.2, inplace)
                              (1): Conv2d(48, 48, kernel_size=(4, 4), stride=(2, 2), padding=(1, 1))
                              (2): InstanceNorm2d(48, eps=1e-05, momentum=0.1, affine=False)
                              (3): UnetSkipConnectionBlock (
                                (model): Sequential (
                                  (0): LeakyReLU (0.2, inplace)
                                  (1): Conv2d(48, 48, kernel_size=(4, 4), stride=(2, 2), padding=(1, 1))
                                  (2): ReLU (inplace)
                                  (3): ConvTranspose2d(48, 48, kernel_size=(4, 4), stride=(2, 2), padding=(1, 1))
                                  (4): InstanceNorm2d(48, eps=1e-05, momentum=0.1, affine=False)
                                )
                              )
                              (4): ReLU (inplace)
                              (5): ConvTranspose2d(96, 48, kernel_size=(4, 4), stride=(2, 2), padding=(1, 1))
                              (6): InstanceNorm2d(48, eps=1e-05, momentum=0.1, affine=False)
                            )
                          )
                          (4): ReLU (inplace)
                          (5): ConvTranspose2d(96, 48, kernel_size=(4, 4), stride=(2, 2), padding=(1, 1))
                          (6): InstanceNorm2d(48, eps=1e-05, momentum=0.1, affine=False)
                        )
                      )
                      (4): ReLU (inplace)
                      (5): ConvTranspose2d(96, 48, kernel_size=(4, 4), stride=(2, 2), padding=(1, 1))
                      (6): InstanceNorm2d(48, eps=1e-05, momentum=0.1, affine=False)
                    )
                  )
                  (4): ReLU (inplace)
                  (5): ConvTranspose2d(96, 24, kernel_size=(4, 4), stride=(2, 2), padding=(1, 1))
                  (6): InstanceNorm2d(24, eps=1e-05, momentum=0.1, affine=False)
                )
              )
              (4): ReLU (inplace)
              (5): ConvTranspose2d(48, 12, kernel_size=(4, 4), stride=(2, 2), padding=(1, 1))
              (6): InstanceNorm2d(12, eps=1e-05, momentum=0.1, affine=False)
            )
          )
          (4): ReLU (inplace)
          (5): ConvTranspose2d(24, 6, kernel_size=(4, 4), stride=(2, 2), padding=(1, 1))
          (6): InstanceNorm2d(6, eps=1e-05, momentum=0.1, affine=False)
        )
      )
      (2): ReLU (inplace)
      (3): ConvTranspose2d(12, 1, kernel_size=(4, 4), stride=(2, 2), padding=(1, 1))
      (4): Sigmoid ()
    )
  )
  (last_layer): GuidedFilter (
    (boxfilter): AvgPool2d (size=21, stride=1, padding=10, ceil_mode=False, count_include_pad=True)
  )
)
Total number of parameters: 479077
MultiDiscriminator (
  (scale1): Sequential (
    (0): Conv2d(3, 64, kernel_size=(4, 4), stride=(2, 2), padding=(1, 1))
    (1): LeakyReLU (0.2, inplace)
    (2): Conv2d(64, 128, kernel_size=(4, 4), stride=(2, 2), padding=(1, 1))
    (3): InstanceNorm2d(128, eps=1e-05, momentum=0.1, affine=False)
    (4): LeakyReLU (0.2, inplace)
    (5): Conv2d(128, 256, kernel_size=(4, 4), stride=(2, 2), padding=(1, 1))
    (6): InstanceNorm2d(256, eps=1e-05, momentum=0.1, affine=False)
    (7): LeakyReLU (0.2, inplace)
  )
  (scale1_output): Sequential (
    (0): Conv2d(256, 1, kernel_size=(4, 4), stride=(1, 1), padding=(1, 1))
  )
  (scale2): Sequential (
    (0): Conv2d(256, 512, kernel_size=(4, 4), stride=(2, 2), padding=(1, 1))
    (1): InstanceNorm2d(512, eps=1e-05, momentum=0.1, affine=False)
    (2): LeakyReLU (0.2, inplace)
    (3): Conv2d(512, 512, kernel_size=(4, 4), stride=(2, 2), padding=(1, 1))
    (4): InstanceNorm2d(512, eps=1e-05, momentum=0.1, affine=False)
    (5): LeakyReLU (0.2, inplace)
    (6): Conv2d(512, 512, kernel_size=(4, 4), stride=(1, 1), padding=(1, 1))
    (7): InstanceNorm2d(512, eps=1e-05, momentum=0.1, affine=False)
    (8): LeakyReLU (0.2, inplace)
    (9): Conv2d(512, 1, kernel_size=(4, 4), stride=(1, 1), padding=(1, 1))
  )
)
Total number of parameters: 11158466
-----------------------------------------------
model [DisentangledModel] was created
create web directory /home/xyang/UTS/Data/Haze/D-HAZY/NYU/checkpoints/disentangled_resizedconv_sigmoid_A40_TV0.1_lr0.0002_guided_id2/web...
dataset [DepthDataset] was created
(epoch: 1, iters: 200, time: 0.112) G_B: 0.565 G_L1: 8.266 D: 1.035 TV: 0.001 
…
no_dropout: True
no_flip: False
non_linearity: sigmoid
norm: instance
ntest: inf
output_nc: 3
phase: test
pooling: False
resize_or_crop: resize_and_crop
results_dir: /home/xyang/UTS/Data/Haze/D-HAZY/NYU/results
serial_batches: True
which_direction: AtoB
which_epoch: latest
which_model_depth: unet_256
which_model_netD: multi
which_model_netG: resnet_9blocks
-------------- End ----------------
CustomDatasetDataLoader
dataset [DepthDataset] was created
disentangled_final
---------- Networks initialized -------------
ResnetGenerator (
  (model): Sequential (
    (0): ReflectionPad2d (3, 3, 3, 3)
    (1): Conv2d(3, 64, kernel_size=(7, 7), stride=(1, 1))
    (2): InstanceNorm2d(64, eps=1e-05, momentum=0.1, affine=False)
    (3): ReLU (inplace)
    (4): Conv2d(64, 128, kernel_size=(3, 3), stride=(2, 2), padding=(1, 1))
    (5): InstanceNorm2d(128, eps=1e-05, momentum=0.1, affine=False)
    (6): ReLU (inplace)
    (7): Conv2d(128, 256, kernel_size=(3, 3), stride=(2, 2), padding=(1, 1))
    (8): InstanceNorm2d(256, eps=1e-05, momentum=0.1, affine=False)
    (9): ReLU (inplace)
    (10): ResnetBlock (
      (conv_block): Sequential (
        (0): ReflectionPad2d (1, 1, 1, 1)
        (1): Conv2d(256, 256, kernel_size=(3, 3), stride=(1, 1))
        (2): InstanceNorm2d(256, eps=1e-05, momentum=0.1, affine=False)
        (3): ReLU (inplace)
        (4): ReflectionPad2d (1, 1, 1, 1)
        (5): Conv2d(256, 256, kernel_size=(3, 3), stride=(1, 1))
        (6): InstanceNorm2d(256, eps=1e-05, momentum=0.1, affine=False)
      )
    )
    (11): ResnetBlock (
      (conv_block): Sequential (
        (0): ReflectionPad2d (1, 1, 1, 1)
        (1): Conv2d(256, 256, kernel_size=(3, 3), stride=(1, 1))
        (2): InstanceNorm2d(256, eps=1e-05, momentum=0.1, affine=False)
        (3): ReLU (inplace)
        (4): ReflectionPad2d (1, 1, 1, 1)
        (5): Conv2d(256, 256, kernel_size=(3, 3), stride=(1, 1))
        (6): InstanceNorm2d(256, eps=1e-05, momentum=0.1, affine=False)
      )
    )
    (12): ResnetBlock (
      (conv_block): Sequential (
        (0): ReflectionPad2d (1, 1, 1, 1)
        (1): Conv2d(256, 256, kernel_size=(3, 3), stride=(1, 1))
        (2): InstanceNorm2d(256, eps=1e-05, momentum=0.1, affine=False)
        (3): ReLU (inplace)
        (4): ReflectionPad2d (1, 1, 1, 1)
        (5): Conv2d(256, 256, kernel_size=(3, 3), stride=(1, 1))
        (6): InstanceNorm2d(256, eps=1e-05, momentum=0.1, affine=False)
      )
    )
    (13): ResnetBlock (
      (conv_block): Sequential (
        (0): ReflectionPad2d (1, 1, 1, 1)
        (1): Conv2d(256, 256, kernel_size=(3, 3), stride=(1, 1))
        (2): InstanceNorm2d(256, eps=1e-05, momentum=0.1, affine=False)
        (3): ReLU (inplace)
        (4): ReflectionPad2d (1, 1, 1, 1)
        (5): Conv2d(256, 256, kernel_size=(3, 3), stride=(1, 1))
        (6): InstanceNorm2d(256, eps=1e-05, momentum=0.1, affine=False)
      )
    )
    (14): ResnetBlock (
      (conv_block): Sequential (
        (0): ReflectionPad2d (1, 1, 1, 1)
        (1): Conv2d(256, 256, kernel_size=(3, 3), stride=(1, 1))
        (2): InstanceNorm2d(256, eps=1e-05, momentum=0.1, affine=False)
        (3): ReLU (inplace)
        (4): ReflectionPad2d (1, 1, 1, 1)
        (5): Conv2d(256, 256, kernel_size=(3, 3), stride=(1, 1))
        (6): InstanceNorm2d(256, eps=1e-05, momentum=0.1, affine=False)
      )
    )
    (15): ResnetBlock (
      (conv_block): Sequential (
        (0): ReflectionPad2d (1, 1, 1, 1)
        (1): Conv2d(256, 256, kernel_size=(3, 3), stride=(1, 1))
        (2): InstanceNorm2d(256, eps=1e-05, momentum=0.1, affine=False)
        (3): ReLU (inplace)
        (4): ReflectionPad2d (1, 1, 1, 1)
        (5): Conv2d(256, 256, kernel_size=(3, 3), stride=(1, 1))
        (6): InstanceNorm2d(256, eps=1e-05, momentum=0.1, affine=False)
      )
    )
    (16): ResnetBlock (
      (conv_block): Sequential (
        (0): ReflectionPad2d (1, 1, 1, 1)
        (1): Conv2d(256, 256, kernel_size=(3, 3), stride=(1, 1))
        (2): InstanceNorm2d(256, eps=1e-05, momentum=0.1, affine=False)
        (3): ReLU (inplace)
        (4): ReflectionPad2d (1, 1, 1, 1)
        (5): Conv2d(256, 256, kernel_size=(3, 3), stride=(1, 1))
        (6): InstanceNorm2d(256, eps=1e-05, momentum=0.1, affine=False)
      )
    )
    (17): ResnetBlock (
      (conv_block): Sequential (
        (0): ReflectionPad2d (1, 1, 1, 1)
        (1): Conv2d(256, 256, kernel_size=(3, 3), stride=(1, 1))
        (2): InstanceNorm2d(256, eps=1e-05, momentum=0.1, affine=False)
        (3): ReLU (inplace)
        (4): ReflectionPad2d (1, 1, 1, 1)
        (5): Conv2d(256, 256, kernel_size=(3, 3), stride=(1, 1))
        (6): InstanceNorm2d(256, eps=1e-05, momentum=0.1, affine=False)
      )
    )
    (18): ResnetBlock (
      (conv_block): Sequential (
        (0): ReflectionPad2d (1, 1, 1, 1)
        (1): Conv2d(256, 256, kernel_size=(3, 3), stride=(1, 1))
        (2): InstanceNorm2d(256, eps=1e-05, momentum=0.1, affine=False)
        (3): ReLU (inplace)
        (4): ReflectionPad2d (1, 1, 1, 1)
        (5): Conv2d(256, 256, kernel_size=(3, 3), stride=(1, 1))
        (6): InstanceNorm2d(256, eps=1e-05, momentum=0.1, affine=False)
      )
    )
    (19): Upsample(scale_factor=2, mode=nearest)
    (20): Conv2d(256, 128, kernel_size=(3, 3), stride=(1, 1), padding=(1, 1))
    (21): InstanceNorm2d(128, eps=1e-05, momentum=0.1, affine=False)
    (22): ReLU (inplace)
    (23): Upsample(scale_factor=2, mode=nearest)
    (24): Conv2d(128, 64, kernel_size=(3, 3), stride=(1, 1), padding=(1, 1))
    (25): InstanceNorm2d(64, eps=1e-05, momentum=0.1, affine=False)
    (26): ReLU (inplace)
    (27): ReflectionPad2d (3, 3, 3, 3)
    (28): Conv2d(64, 3, kernel_size=(7, 7), stride=(1, 1))
    (29): Tanh ()
  )
)
Total number of parameters: 11378179
UnetGenerator (
  (model): UnetSkipConnectionBlock (
    (model): Sequential (
      (0): Conv2d(3, 6, kernel_size=(4, 4), stride=(2, 2), padding=(1, 1))
      (1): UnetSkipConnectionBlock (
        (model): Sequential (
          (0): LeakyReLU (0.2, inplace)
          (1): Conv2d(6, 12, kernel_size=(4, 4), stride=(2, 2), padding=(1, 1))
          (2): InstanceNorm2d(12, eps=1e-05, momentum=0.1, affine=False)
          (3): UnetSkipConnectionBlock (
            (model): Sequential (
              (0): LeakyReLU (0.2, inplace)
              (1): Conv2d(12, 24, kernel_size=(4, 4), stride=(2, 2), padding=(1, 1))
              (2): InstanceNorm2d(24, eps=1e-05, momentum=0.1, affine=False)
              (3): UnetSkipConnectionBlock (
                (model): Sequential (
                  (0): LeakyReLU (0.2, inplace)
                  (1): Conv2d(24, 48, kernel_size=(4, 4), stride=(2, 2), padding=(1, 1))
                  (2): InstanceNorm2d(48, eps=1e-05, momentum=0.1, affine=False)
                  (3): UnetSkipConnectionBlock (
                    (model): Sequential (
                      (0): LeakyReLU (0.2, inplace)
                      (1): Conv2d(48, 48, kernel_size=(4, 4), stride=(2, 2), padding=(1, 1))
                      (2): InstanceNorm2d(48, eps=1e-05, momentum=0.1, affine=False)
                      (3): UnetSkipConnectionBlock (
                        (model): Sequential (
                          (0): LeakyReLU (0.2, inplace)
                          (1): Conv2d(48, 48, kernel_size=(4, 4), stride=(2, 2), padding=(1, 1))
                          (2): InstanceNorm2d(48, eps=1e-05, momentum=0.1, affine=False)
                          (3): UnetSkipConnectionBlock (
                            (model): Sequential (
                              (0): LeakyReLU (0.2, inplace)
                              (1): Conv2d(48, 48, kernel_size=(4, 4), stride=(2, 2), padding=(1, 1))
                              (2): InstanceNorm2d(48, eps=1e-05, momentum=0.1, affine=False)
                              (3): UnetSkipConnectionBlock (
                                (model): Sequential (
                                  (0): LeakyReLU (0.2, inplace)
                                  (1): Conv2d(48, 48, kernel_size=(4, 4), stride=(2, 2), padding=(1, 1))
                                  (2): ReLU (inplace)
                                  (3): ConvTranspose2d(48, 48, kernel_size=(4, 4), stride=(2, 2), padding=(1, 1))
                                  (4): InstanceNorm2d(48, eps=1e-05, momentum=0.1, affine=False)
                                )
                              )
                              (4): ReLU (inplace)
                              (5): ConvTranspose2d(96, 48, kernel_size=(4, 4), stride=(2, 2), padding=(1, 1))
                              (6): InstanceNorm2d(48, eps=1e-05, momentum=0.1, affine=False)
                            )
                          )
                          (4): ReLU (inplace)
                          (5): ConvTranspose2d(96, 48, kernel_size=(4, 4), stride=(2, 2), padding=(1, 1))
                          (6): InstanceNorm2d(48, eps=1e-05, momentum=0.1, affine=False)
                        )
                      )
                      (4): ReLU (inplace)
                      (5): ConvTranspose2d(96, 48, kernel_size=(4, 4), stride=(2, 2), padding=(1, 1))
                      (6): InstanceNorm2d(48, eps=1e-05, momentum=0.1, affine=False)
                    )
                  )
                  (4): ReLU (inplace)
                  (5): ConvTranspose2d(96, 24, kernel_size=(4, 4), stride=(2, 2), padding=(1, 1))
                  (6): InstanceNorm2d(24, eps=1e-05, momentum=0.1, affine=False)
                )
              )
              (4): ReLU (inplace)
              (5): ConvTranspose2d(48, 12, kernel_size=(4, 4), stride=(2, 2), padding=(1, 1))
              (6): InstanceNorm2d(12, eps=1e-05, momentum=0.1, affine=False)
            )
          )
          (4): ReLU (inplace)
          (5): ConvTranspose2d(24, 6, kernel_size=(4, 4), stride=(2, 2), padding=(1, 1))
          (6): InstanceNorm2d(6, eps=1e-05, momentum=0.1, affine=False)
        )
      )
      (2): ReLU (inplace)
      (3): ConvTranspose2d(12, 1, kernel_size=(4, 4), stride=(2, 2), padding=(1, 1))
      (4): Sigmoid ()
    )
  )
  (last_layer): GuidedFilter (
    (boxfilter): AvgPool2d (size=21, stride=1, padding=10, ceil_mode=False, count_include_pad=True)
  )
)
Total number of parameters: 479077
-----------------------------------------------
model [DisentangledModel] was created
process image... ['/home/xyang/UTS/Data/Haze/D-HAZY/NYU/testA/1001_Hazy.bmp']
…
