…
no_dropout: True
no_flip: False
non_linearity: sigmoid
norm: instance
ntest: inf
output_nc: 3
phase: test
pooling: False
resize_or_crop: resize_and_crop
results_dir: /home/xyang/UTS/Data/Haze/D-HAZY/NYU/results
serial_batches: False
which_direction: AtoB
which_epoch: latest
which_model_depth: aod
which_model_netD: multi
which_model_netG: resnet_9blocks
-------------- End ----------------
CustomDatasetDataLoader
dataset [DepthDataset] was created
disentangled_final
---------- Networks initialized -------------
ResnetGenerator (
  (model): Sequential (
    (0): ReflectionPad2d (3, 3, 3, 3)
    (1): Conv2d(3, 64, kernel_size=(7, 7), stride=(1, 1))
    (2): InstanceNorm2d(64, eps=1e-05, momentum=0.1, affine=False)
    (3): ReLU (inplace)
    (4): Conv2d(64, 128, kernel_size=(3, 3), stride=(2, 2), padding=(1, 1))
    (5): InstanceNorm2d(128, eps=1e-05, momentum=0.1, affine=False)
    (6): ReLU (inplace)
    (7): Conv2d(128, 256, kernel_size=(3, 3), stride=(2, 2), padding=(1, 1))
    (8): InstanceNorm2d(256, eps=1e-05, momentum=0.1, affine=False)
    (9): ReLU (inplace)
    (10): ResnetBlock (
      (conv_block): Sequential (
        (0): ReflectionPad2d (1, 1, 1, 1)
        (1): Conv2d(256, 256, kernel_size=(3, 3), stride=(1, 1))
        (2): InstanceNorm2d(256, eps=1e-05, momentum=0.1, affine=False)
        (3): ReLU (inplace)
        (4): ReflectionPad2d (1, 1, 1, 1)
        (5): Conv2d(256, 256, kernel_size=(3, 3), stride=(1, 1))
        (6): InstanceNorm2d(256, eps=1e-05, momentum=0.1, affine=False)
      )
    )
    (11): ResnetBlock (
      (conv_block): Sequential (
        (0): ReflectionPad2d (1, 1, 1, 1)
        (1): Conv2d(256, 256, kernel_size=(3, 3), stride=(1, 1))
        (2): InstanceNorm2d(256, eps=1e-05, momentum=0.1, affine=False)
        (3): ReLU (inplace)
        (4): ReflectionPad2d (1, 1, 1, 1)
        (5): Conv2d(256, 256, kernel_size=(3, 3), stride=(1, 1))
        (6): InstanceNorm2d(256, eps=1e-05, momentum=0.1, affine=False)
      )
    )
    (12): ResnetBlock (
      (conv_block): Sequential (
        (0): ReflectionPad2d (1, 1, 1, 1)
        (1): Conv2d(256, 256, kernel_size=(3, 3), stride=(1, 1))
        (2): InstanceNorm2d(256, eps=1e-05, momentum=0.1, affine=False)
        (3): ReLU (inplace)
        (4): ReflectionPad2d (1, 1, 1, 1)
        (5): Conv2d(256, 256, kernel_size=(3, 3), stride=(1, 1))
        (6): InstanceNorm2d(256, eps=1e-05, momentum=0.1, affine=False)
      )
    )
    (13): ResnetBlock (
      (conv_block): Sequential (
        (0): ReflectionPad2d (1, 1, 1, 1)
        (1): Conv2d(256, 256, kernel_size=(3, 3), stride=(1, 1))
        (2): InstanceNorm2d(256, eps=1e-05, momentum=0.1, affine=False)
        (3): ReLU (inplace)
        (4): ReflectionPad2d (1, 1, 1, 1)
        (5): Conv2d(256, 256, kernel_size=(3, 3), stride=(1, 1))
        (6): InstanceNorm2d(256, eps=1e-05, momentum=0.1, affine=False)
      )
    )
    (14): ResnetBlock (
      (conv_block): Sequential (
        (0): ReflectionPad2d (1, 1, 1, 1)
        (1): Conv2d(256, 256, kernel_size=(3, 3), stride=(1, 1))
        (2): InstanceNorm2d(256, eps=1e-05, momentum=0.1, affine=False)
        (3): ReLU (inplace)
        (4): ReflectionPad2d (1, 1, 1, 1)
        (5): Conv2d(256, 256, kernel_size=(3, 3), stride=(1, 1))
        (6): InstanceNorm2d(256, eps=1e-05, momentum=0.1, affine=False)
      )
    )
    (15): ResnetBlock (
      (conv_block): Sequential (
        (0): ReflectionPad2d (1, 1, 1, 1)
        (1): Conv2d(256, 256, kernel_size=(3, 3), stride=(1, 1))
        (2): InstanceNorm2d(256, eps=1e-05, momentum=0.1, affine=False)
        (3): ReLU (inplace)
        (4): ReflectionPad2d (1, 1, 1, 1)
        (5): Conv2d(256, 256, kernel_size=(3, 3), stride=(1, 1))
        (6): InstanceNorm2d(256, eps=1e-05, momentum=0.1, affine=False)
      )
    )
    (16): ResnetBlock (
      (conv_block): Sequential (
        (0): ReflectionPad2d (1, 1, 1, 1)
        (1): Conv2d(256, 256, kernel_size=(3, 3), stride=(1, 1))
        (2): InstanceNorm2d(256, eps=1e-05, momentum=0.1, affine=False)
        (3): ReLU (inplace)
        (4): ReflectionPad2d (1, 1, 1, 1)
        (5): Conv2d(256, 256, kernel_size=(3, 3), stride=(1, 1))
        (6): InstanceNorm2d(256, eps=1e-05, momentum=0.1, affine=False)
      )
    )
    (17): ResnetBlock (
      (conv_block): Sequential (
        (0): ReflectionPad2d (1, 1, 1, 1)
        (1): Conv2d(256, 256, kernel_size=(3, 3), stride=(1, 1))
        (2): InstanceNorm2d(256, eps=1e-05, momentum=0.1, affine=False)
        (3): ReLU (inplace)
        (4): ReflectionPad2d (1, 1, 1, 1)
        (5): Conv2d(256, 256, kernel_size=(3, 3), stride=(1, 1))
        (6): InstanceNorm2d(256, eps=1e-05, momentum=0.1, affine=False)
      )
    )
    (18): ResnetBlock (
      (conv_block): Sequential (
        (0): ReflectionPad2d (1, 1, 1, 1)
        (1): Conv2d(256, 256, kernel_size=(3, 3), stride=(1, 1))
        (2): InstanceNorm2d(256, eps=1e-05, momentum=0.1, affine=False)
        (3): ReLU (inplace)
        (4): ReflectionPad2d (1, 1, 1, 1)
        (5): Conv2d(256, 256, kernel_size=(3, 3), stride=(1, 1))
        (6): InstanceNorm2d(256, eps=1e-05, momentum=0.1, affine=False)
      )
    )
    (19): ConvTranspose2d(256, 128, kernel_size=(3, 3), stride=(2, 2), padding=(1, 1), output_padding=(1, 1))
    (20): InstanceNorm2d(128, eps=1e-05, momentum=0.1, affine=False)
    (21): ReLU (inplace)
    (22): ConvTranspose2d(128, 64, kernel_size=(3, 3), stride=(2, 2), padding=(1, 1), output_padding=(1, 1))
    (23): InstanceNorm2d(64, eps=1e-05, momentum=0.1, affine=False)
    (24): ReLU (inplace)
    (25): ReflectionPad2d (3, 3, 3, 3)
    (26): Conv2d(64, 3, kernel_size=(7, 7), stride=(1, 1))
    (27): Tanh ()
  )
)
Total number of parameters: 11378179
AODNetGenerator (
  (model): Sequential (
    (0): Conv2d(3, 6, kernel_size=(1, 1), stride=(1, 1))
    (1): InstanceNorm2d(6, eps=1e-05, momentum=0.1, affine=False)
    (2): ReLU (inplace)
    (3): ConcatBlock (
      (conv_block1): Sequential (
        (0): ReflectionPad2d (1, 1, 1, 1)
        (1): Conv2d(6, 6, kernel_size=(3, 3), stride=(1, 1))
        (2): InstanceNorm2d(6, eps=1e-05, momentum=0.1, affine=False)
        (3): ReLU (inplace)
      )
      (conv_block2): Sequential (
        (0): ReflectionPad2d (2, 2, 2, 2)
        (1): Conv2d(12, 6, kernel_size=(5, 5), stride=(1, 1))
        (2): InstanceNorm2d(6, eps=1e-05, momentum=0.1, affine=False)
        (3): ReLU (inplace)
      )
      (conv_block3): Sequential (
        (0): ReflectionPad2d (3, 3, 3, 3)
        (1): Conv2d(12, 6, kernel_size=(7, 7), stride=(1, 1))
        (2): InstanceNorm2d(6, eps=1e-05, momentum=0.1, affine=False)
        (3): ReLU (inplace)
      )
    )
    (4): ReflectionPad2d (1, 1, 1, 1)
    (5): Conv2d(24, 1, kernel_size=(3, 3), stride=(1, 1))
    (6): Sigmoid ()
  )
)
Total number of parameters: 5911
-----------------------------------------------
model [DisentangledModel] was created
(1L, 3L, 480L, 640L)
process image... ['/home/xyang/UTS/Data/Haze/D-HAZY/NYU/testA/1001_Hazy.bmp']
(1L, 3L, 480L, 640L)
process image... ['/home/xyang/UTS/Data/Haze/D-HAZY/NYU/testA/1002_Hazy.bmp']
(1L, 3L, 480L, 640L)
…
